jetson@jetson-desktop:~/mobilenetv3-master$ python3 inference.py
cuda:0
<class 'mobilenetv3.MobileNetV3_Small'>
----------------------------------------------------------------
        Layer (type)               Output Shape         Param #
================================================================
            Conv2d-1         [-1, 16, 112, 112]             432
       BatchNorm2d-2         [-1, 16, 112, 112]              32
         Hardswish-3         [-1, 16, 112, 112]               0
            Conv2d-4         [-1, 16, 112, 112]             256
       BatchNorm2d-5         [-1, 16, 112, 112]              32
              ReLU-6         [-1, 16, 112, 112]               0
            Conv2d-7           [-1, 16, 56, 56]             144
       BatchNorm2d-8           [-1, 16, 56, 56]              32
              ReLU-9           [-1, 16, 56, 56]               0
AdaptiveAvgPool2d-10             [-1, 16, 1, 1]               0
           Conv2d-11              [-1, 8, 1, 1]             128
      BatchNorm2d-12              [-1, 8, 1, 1]              16
             ReLU-13              [-1, 8, 1, 1]               0
           Conv2d-14             [-1, 16, 1, 1]             128
      Hardsigmoid-15             [-1, 16, 1, 1]               0
         SeModule-16           [-1, 16, 56, 56]               0
           Conv2d-17           [-1, 16, 56, 56]             256
      BatchNorm2d-18           [-1, 16, 56, 56]              32
           Conv2d-19           [-1, 16, 56, 56]             144
      BatchNorm2d-20           [-1, 16, 56, 56]              32
             ReLU-21           [-1, 16, 56, 56]               0
            Block-22           [-1, 16, 56, 56]               0
           Conv2d-23           [-1, 72, 56, 56]           1,152
      BatchNorm2d-24           [-1, 72, 56, 56]             144
             ReLU-25           [-1, 72, 56, 56]               0
           Conv2d-26           [-1, 72, 28, 28]             648
      BatchNorm2d-27           [-1, 72, 28, 28]             144
             ReLU-28           [-1, 72, 28, 28]               0
         Identity-29           [-1, 72, 28, 28]               0
           Conv2d-30           [-1, 24, 28, 28]           1,728
      BatchNorm2d-31           [-1, 24, 28, 28]              48
           Conv2d-32           [-1, 16, 28, 28]             144
      BatchNorm2d-33           [-1, 16, 28, 28]              32
           Conv2d-34           [-1, 24, 28, 28]             408
      BatchNorm2d-35           [-1, 24, 28, 28]              48
             ReLU-36           [-1, 24, 28, 28]               0
            Block-37           [-1, 24, 28, 28]               0
           Conv2d-38           [-1, 88, 28, 28]           2,112
      BatchNorm2d-39           [-1, 88, 28, 28]             176
             ReLU-40           [-1, 88, 28, 28]               0
           Conv2d-41           [-1, 88, 28, 28]             792
      BatchNorm2d-42           [-1, 88, 28, 28]             176
             ReLU-43           [-1, 88, 28, 28]               0
         Identity-44           [-1, 88, 28, 28]               0
           Conv2d-45           [-1, 24, 28, 28]           2,112
      BatchNorm2d-46           [-1, 24, 28, 28]              48
             ReLU-47           [-1, 24, 28, 28]               0
            Block-48           [-1, 24, 28, 28]               0
           Conv2d-49           [-1, 96, 28, 28]           2,304
      BatchNorm2d-50           [-1, 96, 28, 28]             192
        Hardswish-51           [-1, 96, 28, 28]               0
           Conv2d-52           [-1, 96, 14, 14]           2,400
      BatchNorm2d-53           [-1, 96, 14, 14]             192
        Hardswish-54           [-1, 96, 14, 14]               0
AdaptiveAvgPool2d-55             [-1, 96, 1, 1]               0
           Conv2d-56             [-1, 24, 1, 1]           2,304
      BatchNorm2d-57             [-1, 24, 1, 1]              48
             ReLU-58             [-1, 24, 1, 1]               0
           Conv2d-59             [-1, 96, 1, 1]           2,304
      Hardsigmoid-60             [-1, 96, 1, 1]               0
         SeModule-61           [-1, 96, 14, 14]               0
           Conv2d-62           [-1, 40, 14, 14]           3,840
      BatchNorm2d-63           [-1, 40, 14, 14]              80
           Conv2d-64           [-1, 24, 14, 14]             216
      BatchNorm2d-65           [-1, 24, 14, 14]              48
           Conv2d-66           [-1, 40, 14, 14]           1,000
      BatchNorm2d-67           [-1, 40, 14, 14]              80
        Hardswish-68           [-1, 40, 14, 14]               0
            Block-69           [-1, 40, 14, 14]               0
           Conv2d-70          [-1, 240, 14, 14]           9,600
      BatchNorm2d-71          [-1, 240, 14, 14]             480
        Hardswish-72          [-1, 240, 14, 14]               0
           Conv2d-73          [-1, 240, 14, 14]           6,000
      BatchNorm2d-74          [-1, 240, 14, 14]             480
        Hardswish-75          [-1, 240, 14, 14]               0
AdaptiveAvgPool2d-76            [-1, 240, 1, 1]               0
           Conv2d-77             [-1, 60, 1, 1]          14,400
      BatchNorm2d-78             [-1, 60, 1, 1]             120
             ReLU-79             [-1, 60, 1, 1]               0
           Conv2d-80            [-1, 240, 1, 1]          14,400
      Hardsigmoid-81            [-1, 240, 1, 1]               0
         SeModule-82          [-1, 240, 14, 14]               0
           Conv2d-83           [-1, 40, 14, 14]           9,600
      BatchNorm2d-84           [-1, 40, 14, 14]              80
        Hardswish-85           [-1, 40, 14, 14]               0
            Block-86           [-1, 40, 14, 14]               0
           Conv2d-87          [-1, 240, 14, 14]           9,600
      BatchNorm2d-88          [-1, 240, 14, 14]             480
        Hardswish-89          [-1, 240, 14, 14]               0
           Conv2d-90          [-1, 240, 14, 14]           6,000
      BatchNorm2d-91          [-1, 240, 14, 14]             480
        Hardswish-92          [-1, 240, 14, 14]               0
AdaptiveAvgPool2d-93            [-1, 240, 1, 1]               0
           Conv2d-94             [-1, 60, 1, 1]          14,400
      BatchNorm2d-95             [-1, 60, 1, 1]             120
             ReLU-96             [-1, 60, 1, 1]               0
           Conv2d-97            [-1, 240, 1, 1]          14,400
      Hardsigmoid-98            [-1, 240, 1, 1]               0
         SeModule-99          [-1, 240, 14, 14]               0
          Conv2d-100           [-1, 40, 14, 14]           9,600
     BatchNorm2d-101           [-1, 40, 14, 14]              80
       Hardswish-102           [-1, 40, 14, 14]               0
           Block-103           [-1, 40, 14, 14]               0
          Conv2d-104          [-1, 120, 14, 14]           4,800
     BatchNorm2d-105          [-1, 120, 14, 14]             240
       Hardswish-106          [-1, 120, 14, 14]               0
          Conv2d-107          [-1, 120, 14, 14]           3,000
     BatchNorm2d-108          [-1, 120, 14, 14]             240
       Hardswish-109          [-1, 120, 14, 14]               0
AdaptiveAvgPool2d-110            [-1, 120, 1, 1]               0
          Conv2d-111             [-1, 30, 1, 1]           3,600
     BatchNorm2d-112             [-1, 30, 1, 1]              60
            ReLU-113             [-1, 30, 1, 1]               0
          Conv2d-114            [-1, 120, 1, 1]           3,600
     Hardsigmoid-115            [-1, 120, 1, 1]               0
        SeModule-116          [-1, 120, 14, 14]               0
          Conv2d-117           [-1, 48, 14, 14]           5,760
     BatchNorm2d-118           [-1, 48, 14, 14]              96
          Conv2d-119           [-1, 48, 14, 14]           1,920
     BatchNorm2d-120           [-1, 48, 14, 14]              96
       Hardswish-121           [-1, 48, 14, 14]               0
           Block-122           [-1, 48, 14, 14]               0
          Conv2d-123          [-1, 144, 14, 14]           6,912
     BatchNorm2d-124          [-1, 144, 14, 14]             288
       Hardswish-125          [-1, 144, 14, 14]               0
          Conv2d-126          [-1, 144, 14, 14]           3,600
     BatchNorm2d-127          [-1, 144, 14, 14]             288
       Hardswish-128          [-1, 144, 14, 14]               0
AdaptiveAvgPool2d-129            [-1, 144, 1, 1]               0
          Conv2d-130             [-1, 36, 1, 1]           5,184
     BatchNorm2d-131             [-1, 36, 1, 1]              72
            ReLU-132             [-1, 36, 1, 1]               0
          Conv2d-133            [-1, 144, 1, 1]           5,184
     Hardsigmoid-134            [-1, 144, 1, 1]               0
        SeModule-135          [-1, 144, 14, 14]               0
          Conv2d-136           [-1, 48, 14, 14]           6,912
     BatchNorm2d-137           [-1, 48, 14, 14]              96
       Hardswish-138           [-1, 48, 14, 14]               0
           Block-139           [-1, 48, 14, 14]               0
          Conv2d-140          [-1, 288, 14, 14]          13,824
     BatchNorm2d-141          [-1, 288, 14, 14]             576
       Hardswish-142          [-1, 288, 14, 14]               0
          Conv2d-143            [-1, 288, 7, 7]           7,200
     BatchNorm2d-144            [-1, 288, 7, 7]             576
       Hardswish-145            [-1, 288, 7, 7]               0
AdaptiveAvgPool2d-146            [-1, 288, 1, 1]               0
          Conv2d-147             [-1, 72, 1, 1]          20,736
     BatchNorm2d-148             [-1, 72, 1, 1]             144
            ReLU-149             [-1, 72, 1, 1]               0
          Conv2d-150            [-1, 288, 1, 1]          20,736
     Hardsigmoid-151            [-1, 288, 1, 1]               0
        SeModule-152            [-1, 288, 7, 7]               0
          Conv2d-153             [-1, 96, 7, 7]          27,648
     BatchNorm2d-154             [-1, 96, 7, 7]             192
          Conv2d-155             [-1, 48, 7, 7]             432
     BatchNorm2d-156             [-1, 48, 7, 7]              96
          Conv2d-157             [-1, 96, 7, 7]           4,704
     BatchNorm2d-158             [-1, 96, 7, 7]             192
       Hardswish-159             [-1, 96, 7, 7]               0
           Block-160             [-1, 96, 7, 7]               0
          Conv2d-161            [-1, 576, 7, 7]          55,296
     BatchNorm2d-162            [-1, 576, 7, 7]           1,152
       Hardswish-163            [-1, 576, 7, 7]               0
          Conv2d-164            [-1, 576, 7, 7]          14,400
     BatchNorm2d-165            [-1, 576, 7, 7]           1,152
       Hardswish-166            [-1, 576, 7, 7]               0
AdaptiveAvgPool2d-167            [-1, 576, 1, 1]               0
          Conv2d-168            [-1, 144, 1, 1]          82,944
     BatchNorm2d-169            [-1, 144, 1, 1]             288
            ReLU-170            [-1, 144, 1, 1]               0
          Conv2d-171            [-1, 576, 1, 1]          82,944
     Hardsigmoid-172            [-1, 576, 1, 1]               0
        SeModule-173            [-1, 576, 7, 7]               0
          Conv2d-174             [-1, 96, 7, 7]          55,296
     BatchNorm2d-175             [-1, 96, 7, 7]             192
       Hardswish-176             [-1, 96, 7, 7]               0
           Block-177             [-1, 96, 7, 7]               0
          Conv2d-178            [-1, 576, 7, 7]          55,296
     BatchNorm2d-179            [-1, 576, 7, 7]           1,152
       Hardswish-180            [-1, 576, 7, 7]               0
          Conv2d-181            [-1, 576, 7, 7]          14,400
     BatchNorm2d-182            [-1, 576, 7, 7]           1,152
       Hardswish-183            [-1, 576, 7, 7]               0
AdaptiveAvgPool2d-184            [-1, 576, 1, 1]               0
          Conv2d-185            [-1, 144, 1, 1]          82,944
     BatchNorm2d-186            [-1, 144, 1, 1]             288
            ReLU-187            [-1, 144, 1, 1]               0
          Conv2d-188            [-1, 576, 1, 1]          82,944
     Hardsigmoid-189            [-1, 576, 1, 1]               0
        SeModule-190            [-1, 576, 7, 7]               0
          Conv2d-191             [-1, 96, 7, 7]          55,296
     BatchNorm2d-192             [-1, 96, 7, 7]             192
       Hardswish-193             [-1, 96, 7, 7]               0
           Block-194             [-1, 96, 7, 7]               0
          Conv2d-195            [-1, 576, 7, 7]          55,296
     BatchNorm2d-196            [-1, 576, 7, 7]           1,152
       Hardswish-197            [-1, 576, 7, 7]               0
AdaptiveAvgPool2d-198            [-1, 576, 1, 1]               0
          Linear-199                 [-1, 1280]         737,280
     BatchNorm1d-200                 [-1, 1280]           2,560
       Hardswish-201                 [-1, 1280]               0
         Dropout-202                 [-1, 1280]               0
          Linear-203                 [-1, 1000]       1,281,000
================================================================
Total params: 2,950,524
Trainable params: 2,950,524
Non-trainable params: 0
----------------------------------------------------------------
Input size (MB): 0.57
Forward/backward pass size (MB): 42.97
Params size (MB): 11.26
Estimated Total Size (MB): 54.80
----------------------------------------------------------------
None
Warning: module Hardswish is treated as a zero-op.
…
